…
put_shape))\nmodel.add(MaxPooling2D(pool_size=(2, 2)))\nmodel.add(Flatten()) \nmodel.add(Dense(256, activation=tf.nn.relu))\nmodel.add(Dropout(0.2))\nmodel.add(Dense(10,activation=tf.nn.softmax))\n```\n:::\n\n\n::: {#2e6428ac .cell execution_count=8}\n``` {.python .cell-code}\nmodel.summary()\n```\n\n::: {.cell-output .cell-output-stdout}\n```\nModel: \"sequential\"\n_________________________________________________________________\n Layer (type)                Output Shape              Param #   \n=================================================================\n conv2d (Conv2D)             (None, 26, 26, 32)        320       \n                                                                 \n max_pooling2d (MaxPooling2  (None, 13, 13, 32)        0         \n D)                                                              \n                                                                 \n conv2d_1 (Conv2D)           (None, 11, 11, 32)        9248      \n                                                                 \n max_pooling2d_1 (MaxPoolin  (None, 5, 5, 32)          0         \n g2D)                                                            \n                                                                 \n flatten (Flatten)           (None, 800)               0         \n                                                                 \n dense (Dense)               (None, 256)               205056    \n                                                                 \n dropout (Dropout)           (None, 256)               0         \n                                                                 \n dense_1 (Dense)             (None, 10)                2570      \n                                                                 \n=================================================================\nTotal params: 217194 (848.41 KB)\nTrainable params: 217194 (848.41 KB)\nNon-trainable params: 0 (0.00 Byte)\n_________________________________________________________________\n```\n:::\n:::\n\n\n## Training the CNN\n\n::: {#76c0b84e .cell execution_count=9}\
…
