…
model.add(Flatten()) \nmodel.add(Dense(256, activation=tf.nn.relu))\nmodel.add(Dropout(0.2))\nmodel.add(Dense(10,activation=tf.nn.softmax))\n\n2022-10-18 14:16:49.743398: E tensorflow/stream_executor/cuda/cuda_driver.cc:265] failed call to cuInit: CUDA_ERROR_NO_DEVICE: no CUDA-capable device is detected\n\n\n\nmodel.summary()\n\nModel: \"sequential\"\n\n\n_________________________________________________________________\n\n\n Layer (type)                Output Shape              Param #   \n\n\n=================================================================\n\n\n conv2d (Conv2D)             (None, 26, 26, 32)        320       \n\n\n                                                                 \n\n\n max_pooling2d (MaxPooling2D  (None, 13, 13, 32)       0         \n\n\n )                                                               \n\n\n                                                                 \n\n\n conv2d_1 (Conv2D)           (None, 11, 11, 32)        9248      \n\n\n                                                                 \n\n\n max_pooling2d_1 (MaxPooling  (None, 5, 5, 32)         0         \n\n\n 2D)                                                             \n\n\n                                                                 \n\n\n flatten (Flatten)           (None, 800)               0         \n\n\n                                                                 \n\n\n dense (Dense)               (None, 256)               205056    \n\n\n                                                                 \n\n\n dropout (Dropout)           (None, 256)               0         \n\n\n                                                                 \n\n\n dense_1 (Dense)             (None, 10)                2570      \n\n\n                                                                 \n\n\n=================================================================\n\n\nTotal params: 217,194\n\n\nTrainable params: 217,194\n\n\nNon-trainable params: 0\n\n\n_________________________________________________________________\n\n\n\n\n\n\nmodel.compile(optimizer='adam', \n              loss='sparse_categorical_crossen
…
